mnist_net.pth (torch, 191775 bytes, 10 tensors)

conv1.weight f4 [6, 1, 5, 5]
0.1727109 0.24289453 0.20975111 0.22400804 0.02239746 0.1253768 0.27623525 0.009805984
0.17418995 -0.1798271 0.05995561 -0.22348458 -0.1795756 -0.058091313 -0.11659737 -0.13432224
-0.28844264 -0.04757112 0.21883154 0.11346068 0.10111485 0.016521653 0.21089798 -0.016167812
0.13988344 -0.21991369 -0.021175357 0.18125123 0.34247038 0.16447657 0.2183083 -0.068146735
0.19944784 0.2469106 0.304699 0.24589123 -0.09198802 -0.09897462 -0.16727504 -0.23969986
0.18052763 0.11966222 -0.21316387 -0.00065237324 -0.12277956 -0.06785987 -0.30276674 -0.065227985
-0.2928503 0.06308188 -0.2436115 -0.018134287 -0.29651406 -0.25472653 0.17928138 0.23117234
0.22830814 0.37648362 0.17496127 0.3285108 0.26478538 0.4091754 0.4247489 0.19690037
-0.11411233 -0.2792676 -0.25780237 -0.19017449 0.027869867 -0.04398241 -0.25939447 -0.33969933
-0.37411708 -0.32469165 0.029368207 -0.13907546 -0.35824218 -0.29377753 -0.29169595 -0.24191394
-0.18195775 -0.35382026 -0.41652176 -0.34736443 -0.4944802 -0.27620822 -0.28173688 -0.29391968
-0.4765226 -0.3205478 -0.2431492 -0.2677209 -0.12798665 -0.257707 0.0025433449 -0.032703605
0.022967651 -0.07398218 -0.11022097 0.2196741 0.2542816 0.30125612 0.0807742 0.06739924
-0.097697094 0.19799209 0.5363902 0.54188985 0.11094988 0.123572476 -0.06781547 -0.056694634
0.30599636 0.25429326 0.34847555 -0.5843864 -0.4617404 -0.20956111 0.12944783 0.20924091
-0.2909342 -0.26065677 -0.35470116 -0.5007943 -0.34042737 -0.11628458 -0.17321694 -0.21792983
-0.2946418 -0.07446027 -0.16079403 -0.28880176 -0.0575254 -0.063412346 -0.34956565 -0.3308669
-0.28273034 -0.36229926 -0.17668244 -0.38954183 -0.34775224 -0.21209249 -0.2994458 -0.36534646
-0.089932546 -0.20026116 -0.239544 -0.23813549 -0.3062572 -0.16146022
00000000: 20db 303e 58b9 783e ffc8 563e 5d62 653e
00000010: e17a b73c c762 003e b56e 8d3e 47a9 203c
00000020: da5e 323e 9824 38be 0494 753d 24d9 64be
00000030: abe2 37be 28f1 6dbd 9aca eebd c58b 09be
00000040: c1ae 93be efd9 42bd 6015 603e 135e e83d
00000050: 4d15 cf3d 6b58 873c a4f5 573e 5c72 84bc
00000060: 9b3d 0f3e 0e31 61be f177 adbc ec99 393e
00000070: 4758 af3e 8c6c 283e 368c 5f3e 8490 8bbd
00000080: 0e3c 4c3e 22d6 7c3e 8201 9c3e e9ca 7b3e
00000090: 3764 bcbd 35b3 cabd 264a 2bbe e173 75be
000000a0: 3cdc 383e 7711 f53d a147 5abe 0704 2bba
000000b0: da73 fbbd 1efa 8abd 3e04 9bbe 4096 85bd
000000c0: 79f0 95be 1331 813d 4b75 79be 5b8e 94bc
000000d0: b1d0 97be 846b 82be 8a95 373e 71b8 6c3e
000000e0: 9cc9 693e 76c2 c03e 0c29 333e 9132 a83e
000000f0: f391 873e 707f d13e b078 d93e 40a0 493e
00000100: bab3 e9bd 2afc 8ebe acfe 83be 1abd 42be
00000110: 594f e43c e626 34bd 5acf 84be 12ed adbe
00000120: 468c bfbe fc3d a6be 9895 f03c cc69 0ebe
00000130: 856b b7be 026a 96be 2c59 95be 4ab8 77be
00000140: 2253 3abe ee27 b5be 5742 d5be c0d9 b1be
00000150: 822c fdbe 2a6b 8dbe d13f 90be a47c 96be
00000160: c5fa f3be d71e a4be 1bfc 78be b712 89be
00000170: ef0e 03be 2cf2 83be 3fae 263b 37f4 05bd
00000180: a826 bc3c f883 97bd 88bb e1bd 3ff2 603e
00000190: 3331 823e 3e3e 9a3e f26c a53d 9d08 8a3d
000001a0: 6a15 c8bd 70be 4a3e de50 093f 4bb9 0a3f
000001b0: b139 e33d 9113 fd3d d6e2 8abd a238 68bd
000001c0: 8eab 9c3e ba32 823e 636b b23e 599a 15bf
000001d0: 3d69 ecbe 3097 56be f98d 043e 4043 563e
000001e0: 54f5 94be ce74 85be 649b b5be 0e34 00bf
000001f0: 7f4c aebe 9c26 eebd c85f 31be ff28 5fbe
00000200: 4adb 96be a07e 98bd 31a7 24be d3dd 93be
00000210: c19f 6bbd 55de 81bd 45fa b2be 6367 a9be
00000220: 08c2 90be 4a7f b9be 3eec 34be 0772 c7be
00000230: 950c b2be c62e 59be f650 99be b10e bbbe
00000240: 8e2e b8bd 4311 4dbe 064b 75be cad9 73be
00000250: becd 9cbe d455 25be

conv1.bias f4 [6]
0.27703878 0.27220714 -0.026727887 0.1733413 0.3536671 0.14374568
00000000: 07d8 8d3e bc5e 8b3e 71f4 dabc 6280 313e
00000010: db13 b53e 1132 133e

conv2.weight f4 [16, 6, 5, 5]
0.003973215 0.071572565 0.018562682 -0.044193324 -0.04219007 0.09389358 0.0019233632 -0.002707947
0.032337997 -0.034916952 0.11481021 0.044049196 -0.0984233 0.008748177 0.034510564 -0.017246611
0.08112751 0.05451453 0.098428115 0.012194722 -0.007948759 -0.009174367 -0.052551933 0.056022063
0.0670649 0.08399712 -0.011640339 -0.052417047 0.07964156 0.082232036 -0.044889096 -0.052839402
-0.028346285 -0.063521534 0.06453052 -0.037323195 -0.012608206 -0.08001529 -0.009133616 -0.08030541
0.08474101 0.15098126 -0.023458596 0.072276436 -0.078872584 -0.092071444 0.07919235 0.024782132
0.07171622 -0.05871569 0.013421481 0.14489245 0.13078512 0.08776061 0.11236121 0.04525237
-0.0071001872 -0.008846968 0.071160994 0.106817335 0.016041996 0.16185784 0.08694121 0.0129817985
0.04260102 0.017872617 -0.029035807 0.048677262 -0.035985462 0.045456275 -0.056645416 -0.03476165
0.028670983 0.056387786 -0.011827125 0.04154385 0.027616965 0.019524056 0.00028905575 0.009886332
0.0031860336 0.09955185 0.14787968 0.029421534 0.08116644 -0.018032663 -0.043224346 0.076827794
0.10264481 0.10479765 -0.06980542 -0.14115395 -0.068809904 -0.036876317 0.02734369 0.037657045
0.013848881 -0.0717357 -0.09743366 -0.040712148 -0.123480015 0.15360434 0.120723054 0.20800133
0.0059648557 0.056465954 -0.048530515 -0.035423253 0.0967158 0.109897956 0.21282378 0.123638146
0.1316528 0.01815513 -0.08218157 -0.05796211 0.16542678 0.19743195 0.012326904 -0.0011638234
0.0042382632 -0.08624804 -0.05170039 0.006011411 0.033016436 -0.060196448 0.069889635 0.087114565
-0.005552666 0.037339922 -0.095395245 0.12042498 0.11117209 0.1065648 0.0073115826 -0.10638264
-0.033071835 -0.05699317 0.114527375 0.0843427 -0.019633299 0.0042217756 -0.1497787 -0.09407657
-0.0524393 -0.06688326 -0.10238999 -0.02505864 -0.00776176 -0.015679095 0.074243866 0.07864609
0.04900017 -0.015936865 0.05292122 -0.09024535 -0.055226065 -0.0077601993 0.06352657 0.03604289
-0.11474323 0.044360075 0.10619292 0.07598591 -0.0034142085 0.044580817 0.037064895 -0.02036119
0.005037014 -0.040561575 -0.0460707 -0.057936452 0.05248127 -0.09067117 -0.057499535 0.016895005
0.024966644 0.01927764 0.06632544 -0.020892465 -0.032134518 -0.01234618 0.15243684 0.13876036
-0.06658549 0.065849535 0.13010114 0.09974351 0.0062259347 -0.08883566 0.14208637 0.063560545
-0.020811602 -0.052458744 0.036306694 0.045841772 0.008538261 0.028979741 0.0025714564 -0.0858288
0.0138469245 -0.079050414 -0.12775593 -0.036212537 0.070403695 0.0011424801 -0.0036457074 0.12510331
0.08036311 -0.026213253 -0.0046473853 0.112555 0.18154092 0.11431111 0.058963306 0.09189498
-0.012688484 -0.021984562 -0.046271745 0.09616183 -0.056487646 -0.028308222 -0.061922558 -0.03553813
0.04959516 -0.021650743 -0.036925074 -0.050570793 -0.18864775 -0.07404764 -0.016633281 -0.0832862
-0.21677358 -0.06219412 0.060508497 -0.029006142 -0.17425519 -0.09950744 0.079480916 0.107528046
-0.075178795 -0.0023491737 0.16689539 0.10422257 0.08620668 -0.06157643 0.08557802 0.07759168
0.028719626 0.16797641 0.041492674 0.009239958 -0.03490325 0.012297298 0.005100857 -0.147358
00000000: be31 823b a394 923d c410 983c 0f04 35bd
00000010: 7fcf 2cbd 474b c03d 5c19 fc3a d077 31bb
00000020: d974 043d 1405 0fbd 9e21 eb3d ee6c 343d
00000030: 2892 c9bd 8454 0f3c f35a 0d3d c448 8dbc
00000040: 2e26 a63d a14a 5f3d ae94 c93d 5fcc 473c
00000050: 833b 02bc 1650 16bc b240 57bd 6477 653d
00000060: 5359 893d af06 ac3d 1fb7 3ebc 42b3 56bd
00000070: 1d1b a33d 4569 a83d a1dd 37bd 216e 58bd
00000080: 7836 e8bc 9417 82bd 9428 843d 35e0 18bd
00000090: a692 4ebc 0edf a3bd 2aa5 15bc 2a77 a4bd
000000a0: b28c ad3d d59a 1a3e 3e2c c0bc ab05 943d
000000b0: f387 a1bd f48f bcbd 992f a23d e603 cb3c
000000c0: f4df 923d dd7f 70bd c5e5 5b3c b05e 143e
000000d0: 89ec 053e d6bb b33d a21d e63d 8d5a 393d
000000e0: b0a8 e8bb e0f2 10bc dbbc 913d 0cc3 da3d
000000f0: 816a 833c 10be 253e 3c0e b23d 9cb1 543c
00000100: 687e 2e3d 9869 923c 80dc edbc cf61 473d
00000110: 7e65 13bd 5c30 3a3d 0605 68bd 3b62 0ebd
00000120: 69df ea3c e1f6 663d 8fc6 41bc e229 2a3d
00000130: f93c e23c eaf0 9f3c 688c 9739 48fa 213c
00000140: c6cc 503b d7e1 cb3d c56d 173e 6e05 f13c
00000150: 973a a63d 3cb9 93bc 030c 31bd e457 9d3d
00000160: 7137 d23d 26a0 d63d 25f6 8ebd a98a 10be
00000170: 35ec 8cbd 9f0b 17bd e0ff df3c 463e 1a3d
00000180: 6be6 623c 2bea 92bd 4c8b c7bd c8c1 26bd
00000190: 17e3 fcbd 754a 1d3e a63d f73d 4dfe 543e
000001a0: d674 c33b d848 673d efc7 46bd f917 11bd
000001b0: ef12 c63d 2e12 e13d 7aee 593e ff35 fd3d
000001c0: fecf 063e 11ba 943c d04e a8bd ad69 6dbd
000001d0: a365 293e 9a2b 4a3e c8f6 493c 6f8b 98ba
000001e0: 21e1 8a3b d0a2 b0bd cac3 53bd 5ffb c43b
000001f0: 3e3c 073d 8d90 76bd 4c22 8f3d 1f69 b23d
00000200: 23f3 b5bb bff1 183d 955e c3bd 5fa1 f63d
00000210: 31ae e33d a53e da3d 0096 ef3b 24df d9bd
00000220: 5576 07bd ac71 69bd 548d ea3d debb ac3d
00000230: 03d6 a0bc d256 8a3b 965f 19be 37ab c0bd
00000240: 97ca 56bd 17fa 88bd d8b1 d1bd c747 cdbc
00000250: 5d56 febb 7271 80bc 2b0d 983d 3411 a13d
00000260: 67b4 483d 078e 82bc ecc3 583d 8ed2 b8bd
00000270: ba34 62bd 4549 febb 381a 823d b6a1 133d
00000280: 80fe eabd e9b2 353d ac7b d93d 809e 9b3d
00000290: eac0 5fbb 609a 363d 5cd1 173d 83cc a6bc
000002a0: 890d a53b e523 26bd a1b4 3cbd c64e 6dbd
000002b0: 9af6 563d ceb1 b9bd a284 6bbd 6567 8a3c
000002c0: d986 cc3c 24ec 9d3c a2d5 873d ad26 abbc
000002d0: 7c9f 03bd a247 4abc 6718 1c3e 3217 0e3e
000002e0: f95d 88bd 1fdc 863d 3c39 053e 5346 cc3d
000002f0: ed02 cc3b 78ef b5bd 177f 113e 082c 823d
00000300: 187d aabc fbde 56bd 54b6 143d 95c4 3b3d
00000310: 10e4 0b3c ec66 ed3c e185 283b 03c7 afbd
00000320: 36de 623c 2fe5 a1bd 73d2 02be 9953 14bd
00000330: d02f 903d 45bf 953a d2ec 6ebb 151b 003e
00000340: 6a95 a43d 2dbd d6bc 1849 98bb 3c83 e63d
00000350: dde5 393e f11b ea3d 8283 713d 6f33 bc3d
00000360: 5ce3 4fbc f818 b4bc 7187 3dbd 7ef0 c43d
00000370: 975f 67bd a5e6 e7bc 82a2 7dbd 6e90 11bd
00000380: 4b24 4b3d e65c b1bc bf3e 17bd 5223 4fbd
00000390: e02c 41be 4aa6 97bd 8542 88bc f591 aabd
000003a0: e5f9 5dbe 43bf 7ebd c2d7 773d 4a9e edbc
000003b0: f46f 32be 8fca cbbd e4c6 a23d aa37 dc3d
000003c0: 57f7 99bd 98f4 19bb a0e6 2a3e a572 d53d
000003d0: 218d b03d 9137 7cbd 8743 af3d 63e8 9e3d
000003e0: 6c45 eb3c 0202 2c3e 39f4 293d 3163 173c
000003f0: b6f6 0ebd 9b7a 493c 1725 a73b 04e5 16be

conv2.bias f4 [16]
0.07980897 0.0016175788 -0.013408381 0.039816428 -0.07322548 -0.006914647 0.013971786 0.043506537
0.07370272 0.065358415 0.03987193 0.0374225 0.059274007 0.008166956 -0.060163625 0.04859378
00000000: e372 a33d f004 d43a d3ae 5bbc 8d16 233d
00000010: 3ef7 95bd 4394 e2bb ebe9 643c e933 323d
00000020: 74f1 963d a2da 853d c050 233d 5648 193d
00000030: 4dc9 723d b2ce 053c 226e 76bd 450a 473d

fc1.weight f4 [128, 256]
-0.020362714 -0.04471749 0.0038091308 -0.014489508 0.058292784 -0.055997174 -0.09472509 -0.09763759
0.02988228 -0.018379256 -0.022499388 -0.025708567 -0.013082674 -0.03543807 0.06955773 0.058387406
0.052772604 0.01850329 0.026239302 -0.0076572406 -0.0012730194 0.03160528 -0.0044442844 0.06897688
-0.011801302 -0.019482577 0.044839107 0.026051087 -0.051176693 -0.016457906 0.006650139 0.05727531
0.039828323 0.080894165 0.033298712 -0.045255482 0.042171717 0.03214469 0.08456919 0.03953845
-0.016049707 0.033644814 -0.05292394 -0.07093081 0.018797273 -0.03832213 -0.05399078 -0.017784365
-0.030995416 -0.023083746 0.010973606 -0.04539837 -0.023260653 0.053632207 0.03825594 0.012424786
0.002120422 -0.041975718 -0.033429697 0.013708898 -0.040235896 -0.008426057 0.020696258 -0.031535637
-0.023964485 0.039109804 0.008991322 0.0074018193 -0.017134495 0.056790963 -0.040683076 -0.036342952
0.059275996 0.050733175 -0.048708707 0.020399772 -0.04742273 0.03395958 0.008584306 0.06406135
-0.03455917 0.051672596 -0.009084682 -0.07438 0.026984263 -0.039585315 0.019222517 0.03315208
0.102094695 0.033863954 -0.060041707 -0.03719327 0.04093856 -0.056231942 0.006002951 -0.016610201
0.09002725 0.03310024 0.002621596 0.031316992 0.044288393 0.04617197 0.009802883 -0.10231863
-0.009730461 0.033811834 -0.008395986 -0.006774604 -0.0086277155 0.021135079 0.013204488 -0.006363033
-0.033982344 0.06011092 0.055738546 0.05380304 -0.035201237 0.037712157 0.043997902 -0.02336102
-0.041457485 0.05006231 0.030487828 0.028334886 -0.036122747 -0.021262081 0.054634724 0.043110743
-0.10327636 0.06307959 0.031112755 0.026582737 0.0030541355 0.022809446 0.13126668 -0.022814412
-0.04092318 0.026457794 -0.025646826 -0.04996934 -0.021878147 -0.04554788 -0.06563397 -0.025838884
-0.017944979 0.038162034 0.021017393 0.020988667 -0.043977387 -0.07110551 -0.08503077 -0.098290056
0.042553626 0.017571323 -0.030113984 0.007845347 -0.026567552 -0.020075956 0.021875033 0.044593275
-0.0577234 0.05520997 0.009239605 0.037882358 0.03643681 -0.03135853 -0.0018871881 0.024728922
-0.07336806 0.04339308 -0.014530671 -0.039274074 0.0013599308 0.044674434 0.05734954 0.045196984
-0.019034892 -0.067576826 0.027908498 -0.025494892 -0.022874245 -0.039247528 0.004189103 0.03374976
0.07353182 -0.04094558 0.06703739 -0.0210259 -0.023727618 0.07665237 0.018193075 0.056787565
0.04078169 -0.08388903 0.04661682 0.03148855 0.0015241767 -0.08128524 -0.011432993 -0.02842345
0.002743416 0.02072254 0.0030685137 0.0006514327 0.054975532 -0.05359745 0.003881114 0.00317182
-0.05586598 0.049894873 0.058804695 -0.06016858 -0.053058892 -0.050762746 -0.015666736 -0.016191008
-0.008988348 0.03693342 -0.03292496 0.0331867 0.054792423 -0.03691912 0.015841134 -0.0527588
0.005219976 -0.04895057 0.0556478 -0.08187299 0.04717213 0.023113806 0.015180915 -0.083270796
0.0026470262 0.015864624 -0.0048400746 0.03020267 0.031048758 0.011461993 0.023457024 0.023676887
0.054714784 -0.00013559175 -0.063422464 -0.007499835 0.046531625 0.057562966 -0.078912325 -0.044411972
0.044805434 0.0812669 -0.011707843 0.012007757 0.009782691 -0.027260747 0.08860133 0.03938292
00000000: b5cf a6bc b029 37bd 9ca2 793b 6765 6dbc
00000010: 6ac4 6e3d 4b5d 65bd 3aff c1bd 37f6 c7bd
00000020: afcb f43c 1890 96bc a350 b8bc c69a d2bc
00000030: b658 56bc 8227 11bd 4874 8e3d a227 6f3d
00000040: 1628 583d 3694 973c cef3 d63c 97e9 fabb
00000050: 71db a6ba 8a74 013d 5ca1 91bb c043 8d3d
00000060: 405a 41bc ed99 9fbc 36a9 373d 1769 d53c
00000070: a79e 51bd bbd2 86bc 69e9 d93b 8499 6a3d
00000080: 0623 233d d7ab a53d 3b64 083d d05d 39bd
00000090: 40bc 2c3d 27aa 033d 9d32 ad3d 12f3 213d
000000a0: ad7a 83bc 25cf 093d c6c6 58bd 2c44 91bd
000000b0: bdfc 993c aaf7 1cbd 7025 5dbd 84b0 91bc
000000c0: 19ea fdbc 201a bdbc a4ca 333c a4f3 39bd
000000d0: 208d bebc 72ad 5b3d 43b2 1c3d 5491 4b3c
000000e0: c7f6 0a3b bbee 2bbd 94ed 08bd 499b 603c
000000f0: 65ce 24bd 720d 0abc 338b a93c 832b 01bd
00000100: 2b51 c4bc 9a31 203d 5650 133c f68a f23b
00000110: a45d 8cbc a49d 683d 4ca3 26bd 59dc 14bd
00000120: 63cb 723d 97cd 4f3d c882 47bd 6c1d a73c
00000130: 563e 42bd 3319 0b3d 30a5 0c3c 9932 833d
00000140: eb8d 0dbd a5a6 533d ebd7 14bc 8b54 98bd
00000150: 1a0e dd3c 3624 22bd 8a78 9d3c 7aca 073d
00000160: 0617 d13d eeb4 0a3d 4bee 75bd f857 18bd
00000170: 31af 273d 7753 66bd 67b4 c43b 1e12 88bc
00000180: 3560 b83d 1e94 073d 15cf 2b3b 3f46 003d
00000190: bf67 353d d21e 3d3d 459c 203c 6e8c d1bd
000001a0: 836c 1fbc 477e 0a3d 518f 09bc 7ffd ddbb
000001b0: 435b 0dbc 7923 ad3c a357 583c fd80 d0bb
000001c0: 1231 0bbd de36 763d 1a4e 643d 9460 5c3d
000001d0: 2c2f 10bd 1078 1a3d 2537 343d 9c5f bfbc
000001e0: 53cf 29bd 230e 4d3d 9cc1 f93c 901e e83c
000001f0: 72f5 13bd d12d aebc a9c8 5f3d e494 303d
00000200: 8e82 d3bd df2f 813d 2de0 fe3c 0ac4 d93c
00000210: e427 483b e0da ba3c c66a 063e 4ae5 babc
00000220: 109f 27bd 04be d83c 4b19 d2bc a7ac 4cbd
00000230: cd39 b3bc 6a90 3abd 1a6b 86bd 11ac d3bc
00000240: 5901 93bc cb4f 1c3d ab2c ac3c 6df0 ab3c
00000250: a221 34bd c49f 91bd 9d24 aebd 4c4c c9bd
00000260: b64c 2e3d bcf1 8f3c 9ab1 f6bc c589 003c
00000270: 32a4 d9bc 5576 a4bc 4533 b33c 70a7 363d
00000280: 5f6f 6cbd d923 623d b661 173c 882a 1b3d
00000290: c43e 153d cd71 00bd 865b f7ba 4f94 ca3c
000002a0: fe41 96bd f1bc 313d 0d12 6ebc dadd 20bd
000002b0: b53f b23a 8afc 363d 5ae7 6a3d 7920 393d
000002c0: 10ef 9bbc b865 8abd 5da0 e43c aada d0bc
000002d0: c562 bbbc 04c2 20bd be44 893b 303d 0a3d
000002e0: da97 963d 8db6 27bd e64a 893d 823e acbc
000002f0: 6c60 c2bc ebfb 9c3d a509 953c 149a 683d
00000300: b40a 273d 03ce abbd 47f1 3e3d 23fa 003d
00000310: e2c6 c73a e078 a6bd 7351 3bbc 4cd8 e8bc
00000320: e2ca 333b 51c2 a93c 1e19 493b e9c4 2a3a
00000330: 062e 613d 0089 5bbd 4a5a 7e3b 4fde 4f3b
00000340: bad3 64bd 915e 4c3d 31dd 703d 5473 76bd
00000350: 4854 59bd 99ec 4fbd 8757 80bc 01a3 84bc
00000360: dd43 13bc 7f47 173d 53dc 06bd c7ee 073d
00000370: 056e 603d 8138 17bd 44c5 813c 9d19 58bd
00000380: 550c ab3b 6580 48bd f3ee 633d 07ad a7bd
00000390: 9037 413d 2a59 bd3c 5fb9 783c e189 aabd
000003a0: bb79 2d3b 87f6 813c 7d99 9ebb 976b f73c
000003b0: f759 fe3c 15cb 3b3c f228 c03c 08f6 c13c
000003c0: 9c1c 603d a22d 0eb9 a3e3 81bd 2dc1 f5bb
000003d0: f297 3e3d 25c7 6b3d c99c a1bd 54e9 35bd
000003e0: e785 373d 436f a63d 41d2 3fbc 2fbc 443c
000003f0: 9447 203c ee51 dfbc 9d74 b53d fc4f 213d

fc1.bias f4 [128]
0.032822464 -0.01473177 0.057168085 0.017341316 -0.019688854 -0.016253093 0.046497792 -0.031519968
-0.031676847 -0.0037804728 0.03004753 0.014691367 -0.025125483 0.035836145 0.0036976677 -0.021605467
-0.032405455 -0.054236677 0.005341473 -0.029536298 -0.0116714435 -0.0026557853 0.0638842 0.02304899
-0.035014596 0.0253175 0.022575445 -0.0045818547 -0.0007700617 -0.027300127 -0.04925356 0.05861521
0.0447747 0.03551871 -0.03616851 0.011955781 0.055591486 -0.026746375 -0.01541465 0.059722953
-0.0134121515 0.0753877 -0.04638193 -0.06166595 0.049256194 -0.013112004 0.048218828 -0.058585066
-0.004112249 -0.060841594 -0.020823171 -0.017541977 0.028117364 0.05370646 0.009400287 0.04861146
0.032897737 -0.02720493 -0.00093381054 0.06517022 -0.044599872 0.009538371 0.032423772 -0.036409996
-0.0022266612 -0.027119687 0.027831437 -0.009219959 0.045314778 0.026495894 0.029226106 0.007303861
0.008121882 0.06855354 0.032228295 0.016181149 0.04794172 0.030534595 0.01635752 0.018982433
0.049527895 -0.039262332 0.03662139 0.0551606 0.037779585 0.04469267 0.027716877 0.013013233
0.044700556 -0.04823428 -0.0523307 0.06490216 0.011326017 0.006054324 0.0038577276 -0.0028535095
0.030863222 0.061439212 -0.00405563 0.04960165 -0.047798876 0.045645658 -0.045307025 -0.06082473
-0.012348073 -0.011850379 0.02260107 0.03851106 -0.059915483 -0.0041227816 0.03429594 -0.010725158
-0.062926985 0.026609853 -0.05371206 0.01359574 -0.041552108 0.013502147 0.053220786 -0.029804965
0.05116 -0.062938444 0.041742295 0.05969279 -0.015832346 0.04648947 -0.01688279 0.060894426
00000000: d970 063d 865d 71bc 1529 6a3d 600f 8e3c
00000010: 854a a1bc 3525 85bc 7874 3e3d 151b 01bd
00000020: 95bf 01bd cfc1 77bb 3d26 f63c 0fb4 703c
00000030: f5d3 cdbc ecc8 123d 9254 723b f3fd b0bc
00000040: 95bb 04bd 4727 5ebd 8607 af3b 1bf6 f1bc
00000050: 9539 3fbc af0c 2ebb b8d5 823d 3cd1 bc3c
00000060: 776b 0fbd a566 cf3c 24f0 b83c 6223 96bb
00000070: f7dd 49ba 84a4 dfbc 1abe 49bd 8116 703d
00000080: ad65 373d 117c 113d 6e25 14bd 2ee2 433c
00000090: e6b3 633d 371b dbbc ba8d 7cbc 0ea0 743d
000000a0: a4be 5bbc de64 9a3d fbfa 3dbd 6f95 7cbd
000000b0: ddc0 493d bbd3 56bc 1b81 453d e5f6 6fbd
000000c0: 0bc0 86bb 0935 79bd 5b95 aabc 31b4 8fbc
000000d0: 6356 e63c 4efb 5b3d a903 1a3c cf1c 473d
000000e0: c7bf 063d e0dc debc f7ca 74ba f777 853d
000000f0: 5bae 36bd d446 1c3c cace 043d a622 15bd
00000100: 2ded 11bb 1b2a debc c1fe e33c 500f 17bc
00000110: fd9b 393d eb0d d93c 966b ef3c 3a55 ef3b
00000120: a411 053c cc65 8c3d d101 043d 548e 843c
00000130: 895e 443d b023 fa3c 3500 863c 0c81 9b3c
00000140: c3dd 4a3d 8ad1 20bd 5000 163d 15f0 613d
00000150: c4be 1a3d a90f 373d 810e e33c 7535 553c
00000160: ee17 373d 4f91 45bd b758 56bd 6ceb 843d
00000170: c290 393c 5a63 c63b eed1 7c3b f201 3bbb
00000180: ded4 fc3c afa7 7b3d 17e5 84bb 1a2b 4b3d
00000190: c1c8 43bd f1f6 3a3d dc93 39bd 5a23 79bd
000001a0: 924f 4abc 1828 42bc e125 b93c c6bd 1d3d
000001b0: f069 75bd 6618 87bb e679 0c3d 93b8 2fbc
000001c0: dddf 80bd e8fc d93c 2d01 5cbd abc0 5e3c
000001d0: 8b32 2abd 1c38 5d3c 0afe 593d 8b29 f4bc
000001e0: 268d 513d dfe5 80bd f8f9 2a3d 6d80 743d
000001f0: d6b2 81bc be6b 3e3d c74d 8abc 6f6c 793d

fc2.weight f4 [84, 128]
0.026286408 0.011944196 -0.077234216 -0.0012062376 -0.06780613 0.024062144 0.023529194 0.02977597
0.03128291 0.07899905 -0.011850851 -0.042699337 -0.050542247 -0.057047475 -0.04884536 -0.08107824
-0.014354039 0.063101724 -0.028056359 0.050098456 0.09005174 -6.461535e-05 0.09521628 -0.08058561
0.08002202 -0.009367626 -0.049166385 -0.0037904608 -0.04797951 -0.02130985 0.023551801 0.07036242
0.00028860805 -0.033779185 0.055161495 0.10915655 0.040931053 0.055473045 -0.024782231 0.06646912
-0.026700312 0.08373238 0.055143964 0.06567525 -0.036988452 0.047376893 -0.04734387 0.07701651
0.09033009 0.022912502 -0.10990697 -0.043400545 0.04754004 -0.014342086 -0.07414466 -0.055633042
0.054346636 0.067057624 -0.061424255 0.102465644 -0.018371696 0.049174942 0.06089838 0.012737112
-0.040912185 0.030689891 0.072138324 0.043257453 -0.046416562 -0.052896556 -0.056883454 0.055968214
0.036850497 0.07591673 0.025239052 0.076061055 -0.098205484 -0.03484992 0.03625318 0.06349121
0.00637711 -0.024159858 -0.05314257 0.0447321 -0.01952728 0.09463269 -0.046077773 -0.047332186
0.021739189 -0.031309012 -0.029714456 0.013928434 0.122118056 0.023352228 -0.07072384 -0.09533138
-0.033939045 -0.08225781 0.058030896 -0.08454489 0.08873405 0.041476157 -0.031080237 -0.060122207
-0.036758076 0.115090534 0.078927994 0.048768 -0.016234739 -0.046161607 -0.005365467 0.06709986
0.0597483 0.06310911 0.0063379034 0.0008564978 -0.0827454 -0.069611795 0.044710472 0.08866807
-0.13219553 -0.07471332 0.029236786 -0.004447364 -0.150006 -0.02187027 0.073494196 -0.07302473
-0.030220091 -0.042438157 0.06780101 -0.04000309 -0.07344262 -0.054298826 -0.0121961385 0.04719898
-0.02480107 -0.043592073 -0.046274394 -0.032455802 -0.03044997 -0.07008594 -0.058977034 -0.040330857
0.026611889 0.042399593 -0.08501763 0.06776981 -0.06965421 0.014202771 -0.055603705 -0.087739065
-0.017138785 0.026671536 0.038384587 0.015267601 -0.051937897 -0.061803527 -0.08717305 -0.029152784
0.00048692254 0.057473622 -0.045881942 -0.07001739 -0.037368365 0.04152812 -0.036971953 -0.025043098
0.08406147 -0.066948846 -0.02467854 -0.082556434 0.011634057 0.05902377 0.019015942 0.06516448
-0.06898563 -0.020108124 -0.08546154 -0.047550455 0.08202265 0.0052804835 0.02349828 -0.04719855
0.07686278 -0.04841895 -0.058847852 -0.036794957 -0.054945644 -0.052324332 -0.014486272 -0.009507138
0.057703786 0.023605796 -0.06918369 -0.050301854 0.042679805 -0.07942215 0.04966913 0.07458108
-0.05527247 0.0348385 0.022202265 -0.06138326 0.08308894 -0.059042454 -0.07070687 0.032867175
0.041335795 0.03803832 -0.07107657 0.0035473316 0.024950555 -0.077621154 0.0038580487 0.07848241
-0.04549143 -0.030522758 -0.08179861 -0.07720445 -0.05742035 -0.007772279 0.03978238 -0.038381364
0.004395716 0.04936475 0.050177023 0.04450529 -0.032769732 0.026079753 0.014106118 0.02886765
-0.041537426 -0.04089421 -0.08331805 0.07529253 0.077993065 -0.07492332 0.082119405 -0.054321144
0.044080775 -0.07231772 0.07224667 -0.052861124 -0.043187432 -0.056794364 0.014554992 -0.026107527
-0.04885176 0.05727803 0.07239141 0.06810586 -0.05274856 -0.08520688 -0.043727577 0.03336879
00000000: 9856 d73c 97b1 433c f92c 9ebd 9e1a 9eba
00000010: f1dd 8abd f91d c53c 4cc0 c03c bcec f33c
00000020: 8222 003d 41ca a13d 122a 42bc 80e5 2ebd
00000030: 6305 4fbd 9daa 69bd 1212 48bd 590c a6bd
00000040: 342d 6bbc 7a3b 813d 73d6 e5bc 0a34 4d3d
00000050: 0c6d b83d 1a82 87b8 c100 c33d 110a a5bd
00000060: 96e2 a33d ac7a 19bc b162 49bd 6169 78bb
00000070: 2a86 44bd ff91 aebc b5ef c03c 2c1a 903d
00000080: 5150 9739 0b5c 0abd 05f1 613d 788d df3d
00000090: 52a7 273d b437 633d 1b04 cbbc f620 883d
000000a0: 9dba dabc e27b ab3d a3de 613d bf80 863d
000000b0: 3481 17bd 460e 423d a5eb 41bd d5ba 9d3d
000000c0: fbfe b83d 00b3 bb3c e816 e1bd c5c4 31bd
000000d0: 58b9 423d 12fb 6abc 28d9 97bd 79df 63bd
000000e0: 949a 5e3d 8255 893d 0098 7bbd 82d9 d13d
000000f0: 3d80 96bc aa6b 493d 9470 793d 52af 503c
00000100: 8993 27bd 5e69 fb3c 42bd 933d ba2e 313d
00000110: 4b1f 3ebd 0faa 58bd a0fe 68bd ed3e 653d
00000120: 8cf0 163d 3b7a 9b3d 21c2 ce3c e6c5 9b3d
00000130: f51f c9bd cabe 0ebd 377e 143d ae07 823d
00000140: 13f7 d03b e5ea c5bc 06ac 59bd 0239 373d
00000150: adf7 9fbc c9ce c13d 0cbc 3cbd 65df 41bd
00000160: 6216 b23c e13d 00bd bb6b f3bc 1634 643c
00000170: 0819 fa3d 2c4d bf3c a9d7 90bd 193d c3bd
00000180: ab03 0bbd c876 a8bd ceb1 6d3d df25 adbd
00000190: 33ba b53d e7e2 293d fb9b febc b442 76bd
000001a0: a38f 16bd 96b4 eb3d 00a5 a13d f4c0 473d
000001b0: b7fe 84bc f413 3dbd cdd0 afbb a76b 893d
000001c0: a2ba 743d 593f 813d 30ae cf3b 9886 603a
000001d0: 6c76 a9bd a190 8ebd 5422 373d 9b97 b53d
000001e0: 445e 07be 4c03 99bd fc81 ef3c 31bb 91bb
000001f0: 2c9b 19be 4829 b3bc 2084 963d fd8d 95bd
00000200: 2090 f7bc a2d3 2dbd 42db 8a3d 48da 23bd
00000210: 1669 96bd 7268 5ebd 50d2 47bc b853 413d
00000220: 9d2b cbbc 9a8d 32bd 388a 3dbd 60f0 04bd
00000230: 3772 f9bc 3889 8fbd e791 71bd f831 25bd
00000240: 2d01 da3c 32ab 2d3d b91d aebd e6ca 8a3d
00000250: dea6 8ebd bdb2 683c b6c0 63bd 8ab0 b3bd
00000260: a366 8cbc 447e da3c 2839 1d3d f624 7a3c
00000270: d5bc 54bd b225 7dbd c987 b2bd d2d1 eebc
00000280: a349 ff39 7669 6b3d b4ee 3bbd 4765 8fbd
00000290: 920f 19bd 6419 2a3d e76f 17bd 2f27 cdbc
000002a0: 6c28 ac3d 7a1c 89bd a62a cabc 5913 a9bd
000002b0: c69c 3e3c e9c2 713d 52c7 9b3c f474 853d
000002c0: 5748 8dbd cbb9 a4bc 7606 afbd 44c4 42bd
000002d0: 7efb a73d e807 ad3b 777f c03c 4453 41bd
000002e0: 3c6a 9d3d f352 46bd 720a 71bd 4fb6 16bd
000002f0: af0e 61bd 0a52 56bd d457 6dbc d4c3 1bbc
00000300: ce5a 6c3d f160 c13c 2eb0 8dbd 5109 4ebd
00000310: 05d1 2e3d 15a8 a2bd dc71 4b3d f7bd 983d
00000320: 6365 62bd d1b2 0e3d 86e1 b53c 036d 7bbd
00000330: 892a aa3d 80d6 71bd c3ce 90bd bb9f 063d
00000340: b94f 293d 12ce 1b3d 9890 91bd 597a 683b
00000350: 1b65 cc3c d7f7 9ebd 51d7 7c3b 63bb a03d
00000360: 3955 3abd dd0a fabc 0886 a7bd 5e1d 9ebd
00000370: 9a31 6bbd 9aae febb d9f2 223d c735 1dbd
00000380: f009 903b b132 4a3d 6c86 4d3d 2e4b 363d
00000390: 8e39 06bd 35a5 d53c 591d 673c da7b ec3c
000003a0: 2623 2abd b080 27bd a7a2 aabd f832 9a3d
000003b0: d4ba 9f3d 6671 99bd 382e a83d d97f 5ebd
000003c0: 0b8e 343d 501b 94bd 10f6 933d e884 58bd
000003d0: 4ee5 30bd 35a1 68bd 1078 6e3c 74df d5bc
000003e0: c818 48bd 5e9c 6a3d f341 943d 167b 8b3d
000003f0: e00e 58bd f280 aebd b01b 33bd b6ad 083d

fc2.bias f4 [84]
-0.077337936 -0.07032354 -0.058323268 -0.07608229 -0.08501193 -0.031590383 -0.050018884 0.088449635
0.07745348 -0.026064264 0.06989015 0.0017731335 0.03745123 -0.08268702 -0.026166888 -0.03385768
0.004306238 -0.041884303 -0.063671686 -0.037808213 0.038990863 -0.04987223 0.104210064 0.04803017
-0.08454809 0.051947802 0.09845941 0.029018624 -0.06760048 0.036382385 0.0917892 0.02038879
-0.036871538 -0.03815854 0.07052688 -0.0046623726 0.050117917 0.011678238 -0.025846155 -0.073128834
-0.064165525 0.015525575 0.06870504 0.010270311 0.08927418 0.013703693 0.043751407 -0.040054746
0.010626935 -0.054172017 0.031810395 0.0079112835 -0.015107166 0.037914608 -0.07952803 0.011379639
0.056538004 -0.02360047 0.015295263 -0.011427674 0.030100854 0.033612564 -0.028922208 0.06583772
0.03190026 -0.08013806 0.06329031 -0.027288223 0.088812426 -0.02846966 0.011053542 -0.09917271
0.03919948 -0.014994686 0.06401292 -0.062490795 0.0756124 0.046833135 0.08968569 0.0014918249
0.078131296 0.009178929 0.09995264 0.009948361
00000000: 5a63 9ebd ca05 90bd 61e4 6ebd 08d1 9bbd
00000010: bc1a aebd eb64 01bd 9ae0 4cbd 1525 b53d
00000020: ee9f 9e3d b984 d5bc 9122 8f3d 7d68 e83a
00000030: 7666 193d d057 a9bd f15b d6bc 5aae 0abd
00000040: 581b 8d3b e08e 2bbd 4d66 82bd c9dc 1abd
00000050: e2b4 1f3d d346 4cbd 166c d53d 49bb 443d
00000060: 8d27 adbd 38c7 543d 16a5 c93d 77b8 ed3c
00000070: 1f72 8abd b205 153d fafb bb3d 6406 a73c
00000080: 9c06 17bd 214c 1cbd 6670 903d d1c6 98bb
00000090: 7248 4d3d 1556 3f3c 51bb d3bc 92c4 95bd
000000a0: 3769 83bd fb5e 7e3c 3ab5 8c3d ce44 283c
000000b0: 62d5 b63d 7485 603c ad34 333d 7210 24bd
000000c0: 991c 2e3c 7ae3 5dbd 9e4b 023d 549e 013c
000000d0: 0c84 77bc 594c 1b3d 97df a2bd aa71 3a3c
000000e0: 6594 673d c655 c1bc fc98 7a3c 243b 3bbc
000000f0: 1196 f63c 54ad 093d 44ee ecbc edd5 863d
00000100: d9a9 023d 6c1f a4bd 5a9e 813d 8d8b dfbc
00000110: 4ae3 b53d 3439 e9bc ea19 353c 101b cbbd
00000120: a28f 203d 45ac 75bc 3519 833d 59f6 7fbd
00000130: adda 9a3d 1ad4 3f3d 22ad b73d 5689 c33a
00000140: 4d03 a03d 3863 163c f8b3 cc3d 73fe 223c

fc3.weight f4 [10, 84]
0.038387224 -0.01815415 -0.042647164 -0.03935917 -0.057701007 -0.08469812 0.100804776 0.14289263
-0.16817479 -0.014285278 -0.049010444 0.11842422 -0.04463496 -0.022416763 -0.08954007 0.0821779
-0.101428896 -0.036809843 0.08938262 0.09138405 -0.0023201872 -0.116676725 -0.0011389091 -0.07998144
0.10215269 0.034761082 -0.13438164 -0.21444267 -0.13882911 -0.10274 0.050458312 0.164951
-0.17650379 -0.058263846 0.23823088 -0.10293875 -0.14960825 0.021968136 -0.08513739 -0.092032626
0.08674488 -0.07759685 0.07091849 0.12517838 -0.0057389303 -0.19179998 0.14143245 -0.08096647
0.088742204 0.024573645 -0.02921898 -0.04253957 0.067006186 -0.004169192 0.041469842 -0.14013028
0.15560871 0.16536303 -0.10804963 -0.10653751 0.150923 -0.09048511 0.051070217 0.14078791
-0.0006394964 0.17281763 -0.16254255 0.05760919 0.025723718 0.15137279 0.07170838 0.11322164
-0.029272366 -0.08516024 0.014423665 -0.079776525 -0.19145925 -0.14318657 0.19150448 0.06576813
0.06819905 0.086076386 0.03452498 -0.04727453 -0.101927124 0.00044475452 0.11210848 -0.052895654
-0.07152229 0.105080955 0.07396044 0.09222223 0.13239521 -0.10165731 -0.20367622 0.073463276
0.20313546 0.05996862 -0.026629163 0.04613633 -0.046550978 0.05755106 -0.080082215 0.051485743
-0.16659892 0.022365717 -0.23439229 -0.028783914 -0.044885177 -0.2195971 0.25794753 -0.21174066
-0.18823187 -0.04111088 -0.14580503 -0.24113116 0.13193546 0.101448506 -0.07529875 -0.007305203
0.21973902 0.021102363 -0.007402825 -0.05864994 0.1345113 0.06488144 0.09074776 -0.06485142
0.15398628 0.28413752 0.025531733 -0.06973817 0.0478441 0.057925757 0.21229345 -0.010347731
-0.0587442 -0.07467836 0.03962045 0.2232066 0.111936525 0.1116025 -0.0980414 -0.20095953
-0.055592332 -0.031777743 0.07986874 -0.06317615 -0.13543308 0.0024612092 -0.09310513 -0.018519135
0.047403257 0.0565141 0.035945322 -0.018406386 -0.004338931 -0.0016200237 0.1969521 0.037296377
-0.13455522 0.08963692 -0.025280425 -0.055079557 0.0185752 -0.00051266013 0.016216028 0.023121811
0.027890868 0.043986462 -0.0187821 0.07989577 -0.10235396 0.030201094 0.066618614 0.034337804
0.16383281 0.009638084 0.005402461 0.22011073 0.014555943 0.047960196 -0.06697613 0.05738759
0.24549033 -0.15638648 -0.15556483 -0.008921262 0.22140855 0.1035495 -0.24976486 0.037163585
-0.07437323 0.052258182 0.10556825 0.12398956 0.18322451 0.0014906587 0.12238302 -0.21463062
-0.12692536 -0.042596865 0.24370112 -0.07860104 -0.025037926 -0.03505479 -0.052185263 -0.2243761
-0.16714647 0.078100555 -0.0859869 -0.14707564 -0.04397419 0.11340276 0.07872313 -0.22892267
-0.07627925 0.051874913 -0.17054145 0.034926265 -0.014652732 -0.0661016 -0.07200527 -0.19281375
0.25893807 -0.034971826 -0.08148213 -0.005778157 0.071817204 -0.09168393 0.032195736 -0.10277002
-0.07668258 -0.06094479 -0.021490362 0.027271623 0.055630106 -0.02750704 -0.07602705 -0.15080999
0.1276435 0.057831354 0.1618136 0.030172668 -0.023865154 0.06724417 0.04589366 -0.28155285
-0.27189308 0.066190206 0.18094032 0.06550524 0.01023594 0.10383678 -0.03737531 0.020441337
00000000: ec3b 1d3d 03b8 94bc cbae 2ebd 1537 21bd
00000010: e457 6cbd 3576 adbd bc72 ce3d 7252 123e
00000020: 0336 2cbe cc0c 6abc 2dbf 48bd 6688 f23d
00000030: 26d3 36bd 5ca3 b7bc c960 b7bd e34c a83d
00000040: f4b9 cfbd ebc5 16bd 3c0e b73d 9027 bb3d
00000050: 480e 18bb 35f4 eebd 7347 95ba 4fcd a3bd
00000060: 6e35 d13d a361 0e3d 579b 09be dc96 5bbe
00000070: 3829 0ebe 5969 d2bd 60ad 4e3d eae8 283e
00000080: 69bd 34be 12a6 6ebd ccf2 733e 8dd1 d2bd
00000090: e832 19be 85f6 b33c 835c aebd 9a7b bcbd
000000a0: 4da7 b13d 19eb 9ebd b73d 913d c32e 003e
000000b0: a30d bcbb 3767 44be abd3 103e c0d1 a5bd
000000c0: 79be b53d ab4e c93c a45c efbc f93d 2ebd
000000d0: 8a3a 893d b89d 88bb 48dc 293d 507e 0fbe
000000e0: e457 1f3e ed54 293e 2049 ddbd 5730 dabd
000000f0: 8f8b 1a3e 4250 b9bd 012f 513d b52a 103e
00000100: e0a3 27ba 1bf7 303e 8e71 26be 9df7 6b3d
00000110: 8cba d23c 7801 1b3e d8db 923d bfe0 e73d
00000120: 9acc efbc 7e68 aebd 3c51 6c3c e061 a3bd
00000130: e50d 44be 809f 12be c019 443e 71b1 863d
00000140: f2ab 8b3d d148 b03d 116a 0d3d f0a2 41bd
00000150: 2bbf d0bd f12d e939 2199 e53d 1da9 58bd
00000160: 477a 92bd af34 d73d 9278 973d 02df bc3d
00000170: 9c92 073e b531 d0bd 8090 50be ea73 963d
00000180: be02 503e a8a1 753d 6725 dabc 73f9 3c3d
00000190: 3dac 3ebd a9ba 6b3d 2502 a4bd b7e2 523d
000001a0: e898 2abe 4f38 b73c 8804 70be 3ecc ebbc
000001b0: 85d9 37bd 10de 60be b311 843e 8bd2 58be
000001c0: dbbf 40be e263 28bd ea4d 15be 16eb 76be
000001d0: 171a 073e 3cc4 cf3d 3b36 9abd 7c60 efbb
000001e0: 4403 613e ddde ac3c 6693 f2bb eb3a 70bd
000001f0: 55bd 093e 8fe0 843d f6d9 b93d d2d0 84bd
00000200: 94ae 1d3e 797a 913e ed27 d13c e3d2 8ebd
00000210: 2df8 433d 8f43 6d3d 7463 593e 8889 29bc
00000220: c29d 70bd f8f0 98bd 0e49 223d 4590 643e
00000230: fa3e e53d da8f e43d eec9 c8bd 56c8 4dbe
00000240: c9b4 63bd 6129 02bd 3992 a33d 7f62 81bd
00000250: f8ae 0abe 3d4c 213b e7ad bebd 71b5 97bc
00000260: eb29 423d 547b 673d 673b 133d fdc8 96bc
00000270: 972d 8ebb fa56 d4ba d0ad 493e 16c4 183d
00000280: d8c8 09be 9093 b73d e518 cfbc 1a9b 61bd
00000290: 052b 983c 0a64 06ba 7ad7 843c f469 bd3c
000002a0: 647b e43c 262b 343d ebdc 99bc 65a0 a33d
000002b0: f49e d1bd 4968 f73c 576f 883d cca5 0c3d
000002c0: cac3 273e 0ee9 1d3c 2107 b13b b564 613e
000002d0: 0d7c 6e3c e971 443d c82a 89bd 400f 6b3d
000002e0: d161 7b3e c723 20be 634c 1fbe 7c2a 12bc
000002f0: ecb8 623e c311 d43d 5cc2 7fbe d838 183d
00000300: fe50 98bd ad0c 563d 2b34 d83d 3dee fd3d
00000310: 359f 3b3e 3562 c33a f3a3 fa3d 21c8 5bbe
00000320: b9f8 01be 0d7a 2ebd c98c 793e 95f9 a0bd
00000330: 561c cdbc 9d95 0fbd 37c0 55bd d9c2 65be
00000340: 7228 2bbe 2ff3 9f3d e619 b0bd ff9a 16be
00000350: 481e 34bd b53f e83d 9839 a13d b46a 6abe
00000360: 4c38 9cbd ca7a 543d 6ba2 2ebe d80e 0f3d
00000370: 0312 70bc 4760 87bd 8077 93bd f870 45be
00000380: 8893 843e 9e3e 0fbd 1ae0 a6bd b256 bdbb
00000390: e614 933d c9c4 bbbd addf 033d 1779 d2bd
000003a0: c20b 9dbd 3ea1 79bd 8e0c b0bc bd68 df3c
000003b0: 65dc 633d 7256 e1bc 12b4 9bbd ef6d 1abe
000003c0: fab4 023e 92e0 6c3d 77b2 253e ac2c f73c
000003d0: db80 c3bc 50b7 893d fefa 3b3d b227 90be
000003e0: 9235 8bbe bb8e 873d 6b48 393e 9c27 863d
000003f0: a5b4 273c 61a8 d43d da16 19bd 9774 a73c

fc3.bias f4 [10]
-0.03487641 0.0035301845 -0.07571204 0.03323507 0.00076069334 0.00053796166 -0.0062903585 -0.059774354
-0.027700203 0.015322108
00000000: 91da 0ebd ab5a 673b ea0e 9bbd 7f21 083d
00000010: 4469 473a ff05 0d3a 5a1f cebb f4d5 74bd
00000020: 89eb e2bc 9409 7b3c
